AGC_default_h40.onnx (onnx, 351805 bytes, 4 tensors)

onnx::GRU_204 f4 [1, 120, 81]
000000 81 a0 46 3f 40 0a 00 3f cb 0e 7c bd f4 ee 4c bc
       0.7758866 0.5001564 -0.061537545 -0.012508143
000010 c9 c2 e0 be bb e8 57 be e4 45 85 be 3c 3b 9e be
       -0.4389861 -0.21084873 -0.26029885 -0.30904567
000020 87 08 d2 3d 64 8b 0f 3f 68 df 7b be 73 68 92 be
       0.10255533 0.5607207 -0.24596941 -0.28595313
000030 3a 29 bc 3d 50 a0 e1 be 08 41 9b 3d d2 2f 1c bf
       0.09187551 -0.4406762 0.07580763 -0.6101047
000040 eb 69 f6 3e 8d 5f b3 bd dc a1 20 bf 70 fe 0c bf
       0.48127684 -0.08758459 -0.6274698 -0.5507574
000050 18 b9 fe bd 88 84 01 3f b9 c9 7e 3f 80 98 64 3e
       -0.124376476 0.5059285 0.99526554 0.22323799
000060 f6 f5 bd 3e a0 9b 69 3f 43 c7 2b bf 08 39 26 bf
       0.37101716 0.9125309 -0.67100924 -0.6493077
000070 8f 7b 35 be c2 30 e1 be 1f 1b 80 3e 08 3e 5a bf
       -0.17722915 -0.43982512 0.25020692 -0.852509
000080 16 0f 44 3f 6c 5b 01 bf 00 40 30 be fd 5d 19 3f
       0.7658552 -0.50530124 -0.17211914 0.5990904
000090 1c 09 06 3f 96 7e b3 3e 3a 00 b9 3d e1 e1 84 bf
       0.5235765 0.35057515 0.09033246 -1.0381433
0000a0 49 79 ca be 48 4c 75 3f 29 80 1e be 04 fa d8 be
       -0.39545658 0.9581952 -0.15478577 -0.42378247
0000b0 47 ba 4f bf 07 f8 7e bf 89 d3 1b bf 38 2b 8c bf
       -0.8114361 -0.9959721 -0.6086965 -1.0950689
0000c0 ea 9a 34 3f 5b eb 49 3f 03 41 b5 be 60 74 3c 3f
       0.7054888 0.7887475 -0.35401163 0.73615074
0000d0 c7 8b 31 3f 7e ac ae 3f 50 84 6a 3f 7d 41 d4 be
       0.6935391 1.364639 0.9160814 -0.41456214
0000e0 d0 bc e4 3e af a9 31 40 50 48 19 40 77 84 8b 3f
       0.44675303 2.7759817 2.3950386 1.08998
0000f0 cb 62 26 3f f9 e3 2a bf 97 cf b9 3e a3 ff f3 3f
       0.64994496 -0.6675411 0.3629119 1.9062389
000100 98 f1 00 40 e0 cb 52 3f 12 c6 a0 3f a0 99 9d 3f
       2.0147457 0.8234234 1.2560446 1.2312508
000110 c4 28 92 3e be 1b e3 3e 2a 7a bd 3f 1d 27 a7 3f
       0.28546727 0.44357103 1.4802907 1.3058811
000120 98 45 d8 3f 32 a2 d6 3f 40 60 81 3f 3e b4 aa 3f
       1.6896238 1.6768248 1.0107498 1.3336256
000130 e0 74 44 3e 67 06 2e 3f 22 9a b0 3f a5 9d 3c bf
       0.1918521 0.6797852 1.3797038 -0.73678046
000140 9a 0b 16 bf 63 fd e3 3f 35 82 08 40 8c 27 09 40
       -0.5861145 1.7811702 2.1329472 2.1430387
000150 7d a0 b3 3c f4 ef 13 c0 b2 92 2b c0 79 2f 37 c0
       0.021927113 -2.3115206 -2.6808286 -2.8622725
000160 cd e0 50 c0 af bb 4f c0 20 81 47 c0 d3 83 48 c0
       -3.2637208 -3.2458303 -3.1172562 -3.133046
000170 1e 4d 59 c0 e8 db 58 c0 55 e3 52 c0 cf 2f 46 c0
       -3.3953319 -3.388422 -3.2951252 -3.096668
000180 a0 91 42 c0 19 f0 5a c0 ea d9 7a c0 bd 8b 48 c0
       -3.0401382 -3.4209044 -3.9195504 -3.133529
000190 60 76 12 c0 c9 64 12 c0 2f d6 14 c0 20 50 05 c0
       -2.288475 -2.2874014 -2.3255727 -2.0830154
0001a0 88 26 1f c0 58 15 18 c0 0f c8 0e c0 65 16 f3 bf
       -2.4867268 -2.3763027 -2.2309606 -1.8991209
0001b0 85 7c 9b bf 9e 50 ad bf 52 ed ec bf 36 b8 20 c0
       -1.2147375 -1.3540227 -1.8509924 -2.5112433
0001c0 07 96 2d c0 90 a0 28 c0 04 2a 11 c0 10 08 e8 bf
       -2.712282 -2.6348 -2.2681894 -1.812746
0001d0 17 1c bd bf 74 26 95 bf 2b da 8f bf cd ad 71 bf
       -1.4774197 -1.165236 -1.1238455 -0.94405824
0001e0 2c 5f 5b bf 75 65 9a bf 3f 8f 86 bf 44 80 91 bf
       -0.85692096 -1.2062212 -1.0512465 -1.1367269
0001f0 8e 19 9e bf 02 6c a5 bf f1 34 9e bf 89 31 61 bf
       -1.2351549 -1.2923586 -1.2359906 -0.8796621
000200 e0 85 e4 be 67 59 1f bf 03 1f c7 be b1 06 c5 3d
       -0.4463339 -0.6224579 -0.38890848 0.09620417
000210 fe fa ac 3e 41 ca fc 3d 7b a0 2f 3e 81 c0 ec bd
       0.33785242 0.12343264 0.17151062 -0.11560155
000220 b6 0b be 3c 85 51 81 3c 99 b9 28 3e c9 28 da 3e
       0.023198944 0.015785942 0.1647705 0.42609242
000230 98 44 b5 3d 5b dc 0d 3e da 50 73 be 0b c9 38 3e
       0.08850974 0.1385359 -0.23761311 0.18045442
000240 d8 40 34 3f d6 c2 34 3f a6 29 19 3f d4 5d 5c 3f
       0.70411444 0.70609796 0.59829175 0.8608067
000250 98 d8 23 3f 22 0d 4a 3f 3c 9f 9c 3e 77 a0 8d 3e
       0.6400237 0.7892629 0.30590236 0.27661487
000260 ae 2e 0e 3f f4 f2 3f 3f 88 6c 51 3f e1 46 43 3f
       0.5553998 0.7498009 0.8180623 0.7628003
000270 10 59 98 3f 70 5a 6c 3f 03 4e 77 3f 42 26 7e 3f
       1.190218 0.92325497 0.9660341 0.99277127
000280 7b a6 37 3f ca 37 55 3f 85 4c 6c be 57 0a 9f bd
       0.71738404 0.8328825 -0.23076065 -0.07765644
000290 9a 93 27 be 5e 43 74 3e f3 b7 8e 3f 2d 63 09 3f
       -0.163649 0.23853824 1.1149887 0.53666955
0002a0 ad e2 1f 3e 59 1d 84 be 9c ad 17 bd 75 4d 89 3f
       0.15613814 -0.2580364 -0.0370308 1.0726763
0002b0 a0 60 f0 3e d4 83 48 bf 79 98 7f be d4 99 b4 be
       0.4694872 -0.78326154 -0.24960507 -0.35273612
0002c0 fd ab 09 bf 3e ec eb bb 01 47 e2 3e be 02 fd bc
       -0.5377806 -0.007199793 0.44194797 -0.030885097
0002d0 6f b7 0d bf f9 b1 bc 3c 81 ef 35 3e 3d 2f f6 bd
       -0.5535802 0.023034083 0.17767145 -0.12020729
0002e0 bf ec 7b be 59 6f 25 3e a4 35 27 3d 26 94 95 be
       -0.2460203 0.16155757 0.04082264 -0.2921459
0002f0 ed e9 3e bf 9c ea 45 be 53 86 b3 3e a3 45 02 3f
       -0.7457569 -0.19327778 0.3506342 0.5088751
000300 63 05 3f bf df a0 2e bf e2 99 3c 3e 5d 5b 05 bf
       -0.74617594 -0.6821422 0.18418077 -0.52092534
000310 c4 87 af be 08 9b 03 3f d3 13 59 3f c8 42 58 3f
       -0.34283268 0.51408434 0.84795874 0.844769
000320 e6 1c 2c 3f 7e 9b 4b 3f 0a 48 d1 3e 0a 16 d2 be
       0.67231596 0.7953414 0.40875274 -0.4103244
000330 e6 3c 72 be b4 86 55 bf 39 ca 92 be ea 5b 94 3e
       -0.23656043 -0.83408666 -0.2866991 0.28976375
000340 e2 d9 c3 be 02 ba 2d be d3 eb 5e 3f 25 ee 6e 3f
       -0.3825217 -0.16965488 0.8707859 0.9333213
000350 37 a3 64 3e bd 58 6e bf ec c1 cb be ae fd 0e 3e
       0.22327887 -0.93104154 -0.39796388 0.13963959
000360 ae 5b 1a 3f 9f c6 9c 3f e3 ba ba 3e a0 93 ff 3e
       0.6029614 1.2248114 0.36470708 0.49917316
000370 58 c4 ef bd d3 07 9e bd 6b 7a 0c 3e ca 93 62 be
       -0.117073715 -0.07716336 0.13718574 -0.2212669
000380 77 65 85 3f b8 ce 75 3f 18 6e 0d 3f bf 14 0d 3f
       1.042159 0.9601855 0.55246115 0.5510978
000390 39 f1 31 be be df fa be 78 23 84 be 76 c7 71 be
       -0.17377175 -0.48998827 -0.2580831 -0.23611245
0003a0 6a d0 97 be 70 89 47 be 9d ca af 3e 56 ce ae 3e
       -0.29651195 -0.19486022 0.3433427 0.34141797
0003b0 18 9e 81 3d 34 ab e7 be 2c e0 c5 be de 6f 58 bf
       0.06328982 -0.45247805 -0.38647592 -0.84545696
0003c0 9d 9e af be 89 42 b4 3d 5d 67 a6 bc de e0 0c 3f
       -0.343007 0.08801753 -0.02031296 0.5503062
0003d0 fd 03 b0 3e 77 06 3a 3f e6 b9 70 3e 3b fb 1b be
       0.34378043 0.72666115 0.23508415 -0.15232556
0003e0 86 24 05 be 9d fe ff 3c 1d e4 ca bd 06 ed 49 3c
       -0.13002214 0.031249339 -0.099067904 0.012324577
0003f0 5f 15 6f 3e 1f 69 24 3e 11 99 97 be ee 78 e2 3d
       0.23347996 0.16055726 -0.29608968 0.11058222

onnx::GRU_205 f4 [1, 120, 40]
000000 ad 38 95 3d 94 a7 ec bd 13 bf 7b 3f c5 a8 08 be
       0.07286201 -0.115554005 0.9833843 -0.1334563
000010 41 26 35 bf 77 0e 17 3f 6f 1f 54 c0 bf 65 88 bf
       -0.70761496 0.59006447 -3.3144186 -1.065605
000020 6c 84 cc 3f 5a 6b 5b 3f 0e 2a bb 3e 6f 3d 2c 3f
       1.5977912 0.8571068 0.36555523 0.6728124
000030 0f 87 9c 3f 67 b4 57 bf f2 02 28 3f cd 2b be 3e
       1.2228717 -0.8425965 0.65629494 0.37142792
000040 c4 67 33 bf 39 15 ff bc 7c 46 8a 3e 66 77 22 be
       -0.7008021 -0.03113805 0.270069 -0.1586586
000050 84 02 c0 bf d7 76 6c be 40 2a 06 3f 8f 49 9f bf
       -1.5000768 -0.23092209 0.5240822 -1.2444323
000060 40 81 aa be 15 a4 24 bd 9d 4b 87 bf 42 4b a4 bd
       -0.33301735 -0.040195543 -1.056995 -0.08022167
000070 ce 16 ee bf d4 ed 13 40 f6 f8 82 3c b8 a1 2a bf
       -1.860071 2.3113909 0.015987854 -0.66653013
000080 d8 1e c0 be b4 46 3d 3e 05 05 30 3e ed 4d 32 bf
       -0.37523532 0.18484002 0.17189415 -0.69650155
000090 7b dc d9 3f c3 45 77 be 79 15 e4 be 14 24 82 3e
       1.702041 -0.24147706 -0.44547632 0.2541815
0000a0 dd 0c 05 c0 71 8a ec be 41 34 8d 3f e8 71 82 bc
       -2.07891 -0.46199372 1.1031572 -0.015923455
0000b0 73 89 79 3f 31 f9 15 bf ab 3f 87 3f 5f 2a 9e bc
       0.97475356 -0.5858336 1.0566305 -0.019307313
0000c0 61 e3 cf bf d9 99 06 bf 13 b6 cc bf 54 aa 84 bf
       -1.6241266 -0.525785 -1.5993065 -1.036448
0000d0 62 ad 1d be df 10 9c 3e 68 9f 84 3f 73 4b 90 bc
       -0.15398172 0.30481622 1.0361147 -0.017614102
0000e0 9a c3 a8 3f 30 c3 5f 3e 5b dd 2f be f3 08 47 c0
       1.3184693 0.21851802 -0.17174284 -3.1099212
0000f0 4c 6f 97 3f a0 39 88 bf e8 47 cb bf 6c 39 5e c0
       1.183084 -1.0642586 -1.5881319 -3.4722548
000100 78 0c 9a bf 80 36 9a 3e 4e f6 c2 bf 17 d3 50 bf
       -1.2035055 0.30119705 -1.5231416 -0.815721
000110 b0 ae f4 bd 32 79 5e 3f 02 ca ce bf c6 3e 22 be
       -0.119473815 0.8690368 -1.6155398 -0.15844259
000120 8c 8d 55 3f 40 3c ed bf 60 ac 03 be b2 08 48 bf
       0.8341911 -1.8534012 -0.12858725 -0.7813827
000130 8d a1 2f 3f 47 ab f7 3f 7a 2f 21 bf 9a 72 dc 3d
       0.6860588 1.9349145 -0.6296307 0.10764046
000140 ee 5a 24 40 33 9e db be af 27 74 3f 65 c0 7e be
       2.56805 -0.42894134 0.9537305 -0.2487808
000150 03 77 0d 3f 4f f9 a3 bf ee 18 88 bf 25 f1 c9 bf
       0.5525972 -1.2810458 -1.0632608 -1.5776716
000160 ca f4 ac 3f 54 d0 8a bf 1d d7 0e be ab 50 59 bf
       1.3512204 -1.0844827 -0.13949247 -0.84888715
000170 23 fc 9d bf 0c 98 b2 bf 93 e0 04 3f a0 46 f2 bf
       -1.2342571 -1.3952651 0.51905173 -1.8927803
000180 23 9b c0 3f 55 e0 34 bd 21 fa 19 40 f5 3b 8c 3f
       1.5047344 -0.044159252 2.4058917 1.0955797
000190 07 95 88 3f e6 2a 8a bf 99 3a 63 3f 55 58 28 3f
       1.067048 -1.0794342 0.8876129 0.65759784
0001a0 6a ed 83 3f 38 94 45 3f 06 9b 47 3f d8 05 94 bf
       1.0306828 0.7717929 0.7797092 -1.1564283
0001b0 50 db 96 bf f7 82 b2 bf 3f 7e 7f 3f e0 76 6a bf
       -1.1785679 -1.3946217 0.9980201 -0.9158764
0001c0 db ae 63 3f c5 df 66 3e 79 e2 9d 3f c7 51 01 be
       0.88938683 0.22546299 1.2334739 -0.12628852
0001d0 05 9e ec 3e 2c ea c2 bf a7 99 c0 bf 07 21 ec bf
       0.4621431 -1.5227714 -1.5046891 -1.8447579
0001e0 94 4d 7b 3f 12 08 f7 3d 24 96 e7 3f d1 37 48 c0
       0.9816525 0.12062086 1.8092694 -3.1284068
0001f0 24 ad 10 3f 70 2e d1 3e e8 22 0a bf 0b 0c ba bf
       0.5651419 0.40855742 -0.5395951 -1.4534925
000200 0d 1b a3 3f d2 f9 4f bf 5c 4f 00 bf 92 75 b3 3d
       1.274263 -0.8124057 -0.5012109 0.08762659
000210 8a 10 0d c0 66 14 25 bf 7d d8 44 3e 05 4e 5d bf
       -2.2041345 -0.6448425 0.19223209 -0.86447173
000220 79 f0 76 be cf 11 56 be 10 0c 0a bf 37 29 8e be
       -0.2411517 -0.20905231 -0.53924656 -0.2776582
000230 13 38 1e c0 6c 92 3f 3e cf 9a bd bc ba 01 2e c0
       -2.4721725 0.187082 -0.023145108 -2.7188554
000240 a7 47 9a 3f 24 c0 f1 be 20 a9 c1 bf f7 87 2b 3f
       1.2053117 -0.47216904 -1.5129738 0.6700434
000250 7d 3a 8a 3f 70 47 d5 3d e7 64 24 40 fd bc 09 c0
       1.0799099 0.10414016 2.5686586 -2.15216
000260 96 05 bb 3f 7c 05 04 3f 7c a6 61 3f 18 b1 0c 3f
       1.461108 0.5157087 0.8814466 0.54957724
000270 7e 66 cc 3f 94 2c 5a 3f 4e 88 56 bf ba d3 03 ba
       1.5968778 0.8522427 -0.83801734 -0.0005028803
000280 72 25 be bd 25 fd f4 be 8c d1 fd bc 76 8c ff be
       -0.09284486 -0.47849384 -0.030983709 -0.4991185
000290 62 50 54 3f cf d9 d9 bf 2e f2 7c be 47 68 b2 be
       0.82935154 -1.7019595 -0.24701759 -0.34845182
0002a0 c6 55 c2 be 01 a2 66 bf 84 8a 27 bf 38 8e 58 be
       -0.37956065 -0.9009095 -0.65445733 -0.21148002
0002b0 96 91 d3 be 0f 43 13 bf 00 46 5e 3e 62 00 af bf
       -0.4132201 -0.575242 0.2170639 -1.3671992
0002c0 3e 33 c7 3d 49 52 10 3f 94 eb a4 bd 06 50 16 bf
       0.097265705 0.5637556 -0.080527455 -0.58715856
0002d0 59 69 e8 3f 26 38 56 3d 7d f8 ed be 04 10 4a be
       1.815715 0.05229964 -0.46478644 -0.19732672
0002e0 0a 33 b1 bf 3a af e3 3e 68 3f cb bf 7b 07 f0 bf
       -1.3843701 0.44469625 -1.5878725 -1.8752283
0002f0 c6 7a 8c 3e 1a d4 08 3f 37 7e 15 bf 1f 9e 6a be
       0.2743742 0.5344864 -0.58395714 -0.22911881
000300 e5 bc 01 3f 5b 16 be be fd 6b 57 3e 62 1d 01 3f
       0.50678855 -0.3712643 0.21037288 0.5043546
000310 cf a9 3b 3e 07 4f fa 3e ea 8a 1d bf 98 bf 90 bf
       0.18326496 0.48888418 -0.6154009 -1.130847
000320 29 b5 24 bf 9b 41 06 bf fe 36 cb bf ff 6e e6 bf
       -0.6433893 -0.52443856 -1.5876157 -1.8002623
000330 d2 ed 3a bd d4 93 b9 3f f8 a4 c1 3f 6d 5b 25 c0
       -0.04563696 1.4498239 1.512847 -2.5837052
000340 e8 4b 03 bd 26 42 73 bf 59 51 68 3c 42 76 5f 3f
       -0.03205481 -0.9502281 0.014179551 0.8728982
000350 c0 da a1 3f ec 3c 05 3f 68 05 96 be 86 da af bf
       1.2644882 0.52046084 -0.29301 -1.3738563
000360 81 fa ab bc ca 27 7d 3f 56 d6 d4 3e e8 3e d4 3e
       -0.020993473 0.9888884 0.41569775 0.41454244
000370 ed eb 90 3e 31 4a 9b 3f d6 d0 3b be 91 30 21 bd
       0.28304997 1.2132016 -0.18341383 -0.039352957
000380 b2 16 72 3e a3 d9 5d bf b4 7c c8 3e 23 e8 e3 be
       0.2364147 -0.8666021 0.3915764 -0.44513044
000390 59 b7 7e bf 71 5c a9 bf 3a d9 4e 3f 62 a6 20 bf
       -0.99498516 -1.3231336 0.8080021 -0.6275388
0003a0 a5 80 2a c0 3b 65 61 bc 2e 5d aa 3e d8 dd 0b 3e
       -2.6641018 -0.013757045 0.33274215 0.13658845
0003b0 4f ac 29 bf 51 e9 5c 3f 1f 19 0c c0 c0 21 f4 be
       -0.6627855 0.8629351 -2.1890333 -0.47682
0003c0 bc 39 be 3e 4f 1c 7d 3d 16 25 bd bf fb 1d 19 40
       0.37153423 0.061794575 -1.4776943 2.3924549
0003d0 de ac 2d 3f e0 c1 e6 be f8 5b d6 3f 56 02 6f bf
       0.678419 -0.4506979 1.6746817 -0.9336294
0003e0 21 90 88 3f 47 48 55 3f 91 4a 2e be 60 db 99 be
       1.0668985 0.8331341 -0.17020632 -0.30050182
0003f0 1d ae e0 be 82 16 bf be 61 ec 94 3f 7f 52 83 bf
       -0.43882838 -0.3732186 1.1634637 -1.0259551

onnx::GRU_206 f4 [1, 240]
000000 07 22 44 be fe 90 36 bf 74 04 53 3f 4c 5b 74 bf
       -0.19153605 -0.7131499 0.8242867 -0.9545181
000010 92 20 cf 3e 1a da be 3c 97 88 cb 3d a3 e8 00 3d
       0.40454537 0.023297358 0.09938162 0.03147186
000020 5c df b4 3f 82 8a 8f bf eb af 5d bf 69 34 a1 bf
       1.4130664 -1.1214144 -0.86596555 -1.2594119
000030 70 2f 97 bf 98 50 cb bf c6 17 16 40 93 7c 65 bf
       -1.1811352 -1.588397 2.345201 -0.8964321
000040 c0 9e 88 bd 6b c0 0e c0 36 1a dd be 26 ba 09 3f
       -0.06670904 -2.2304943 -0.4318406 0.53799665
000050 8a ca ff 3f 5e 04 cb be 23 e4 64 3f a1 f2 7b bf
       1.9983685 -0.3965177 0.8941061 -0.984171
000060 e6 97 15 40 95 80 56 bf c3 89 9a bf 3a 23 05 40
       2.3373961 -0.8378995 -1.2073292 2.080275
000070 2e bf 78 be e7 84 c5 3f 92 7e b8 3f e7 02 39 bb
       -0.2429168 1.5431184 1.4413626 -0.002823049
000080 f8 59 20 3f 06 07 f3 be 65 e0 7a be 09 32 77 be
       0.6263728 -0.47466296 -0.24499662 -0.2414018
000090 4e 33 b5 3f dd ab 57 3f 41 9e ad be e1 59 8e bf
       1.4156282 0.8424662 -0.339098 -1.1121179
0000a0 30 b7 e9 3d aa ca 4d be 4b d3 b9 be 82 ab 72 3c
       0.11411893 -0.20096841 -0.36294016 0.014811398
0000b0 a4 42 f1 be d9 4f 04 3f 83 4f 14 bf 4e 28 76 3f
       -0.47121155 0.5168434 -0.57933825 0.9615525
0000c0 1a b0 22 bf 48 fa 57 3e e2 63 4b bf d3 0e 37 be
       -0.6354996 0.21091568 -0.79449284 -0.17876749
0000d0 00 24 35 bf f2 47 6d bf 8f 3b 2d bd 95 20 8c bc
       -0.70758057 -0.92687905 -0.042293128 -0.01710538
0000e0 6d 17 a9 3e b4 2d 1d bf 34 10 dc bd 32 10 7d be
       0.33025685 -0.6139786 -0.10745278 -0.2471321
0000f0 ce 82 11 bf 7a bf 39 bf 19 06 25 bf 42 77 a8 bd
       -0.5684022 -0.72557795 -0.6446243 -0.082258716
000100 06 56 90 3d 8a ef 04 3d 5f 6d 61 bd f8 46 a5 bd
       0.07047658 0.032455005 -0.055035945 -0.08070177
000110 ac 35 ba 3e ab 4c 84 bf 18 b0 2a bf 68 64 06 bf
       0.36369073 -1.0335897 -0.6667495 -0.5249696
000120 eb c0 8e be 7c 9e 82 3d d7 9b bf 3b 10 6a 95 bd
       -0.2788156 0.06377885 0.005847435 -0.072956204
000130 b7 cc 04 bf 6f 14 a0 be 1d 70 8a 3f c6 bb f4 3e
       -0.5187487 -0.3126559 1.0815464 0.4779951
000140 19 f5 b9 ba b0 47 a5 bd b3 8a 8a 3c 8f 22 01 3e
       -0.0014187425 -0.08070314 0.01691184 0.1261084
000150 a5 05 36 be 00 95 02 3f 3f 1b dd 3b b3 c0 62 bd
       -0.1777559 0.51008606 0.0067476328 -0.055359554
000160 b9 6b 01 be 90 c2 1a bd 16 0e c1 bd 5d 8c c3 bc
       -0.12638749 -0.037783206 -0.09426515 -0.023870641
000170 4b dc 79 be ca cb 85 be 43 ed 44 bf 8e 38 13 be
       -0.24400441 -0.2613204 -0.7692453 -0.14377043
000180 ee aa c9 bc 82 0c 1b 3d a3 d6 cd bd ed 80 30 be
       -0.024617638 0.037853725 -0.10050704 -0.17236681
000190 c5 f1 36 be ed 9c 12 be 22 37 74 3d f8 0b e3 3d
       -0.17865665 -0.14317675 0.05962289 0.11086267
0001a0 b3 06 56 bd 0a ab 3e bb 24 d3 42 bd db 8f 0f bf
       -0.052252483 -0.0029093646 -0.04756464 -0.5607888
0001b0 8f 00 ff 3e 9c 13 b5 3e ab 6b 78 be ac ee 79 3b
       0.49805114 0.35366523 -0.24259822 0.0038136644
0001c0 6e a6 2f 3e ab 8d 05 3c 58 75 08 3e ed 59 e4 be
       0.17153332 0.008151452 0.13326013 -0.44599858
0001d0 f5 9b 26 3d 7c c2 e1 3d ec 3d 61 3e cf aa f0 3d
       0.040676076 0.11023423 0.21996278 0.11751329
0001e0 09 b7 d1 bd e1 54 30 bf 48 4d 86 3f 04 8b 50 bf
       -0.10239989 -0.68879515 1.0492334 -0.8146212
0001f0 39 98 19 3e 33 ea 41 3c d6 b1 5a 3e 37 67 3a bd
       0.14999475 0.011835623 0.21356902 -0.04550859
000200 4a 94 c1 3f e5 e8 96 bf 3d 8b 54 bf 05 9a b7 bf
       1.5123379 -1.1789824 -0.8302496 -1.4343878
000210 c5 18 87 bf fe da c2 bf 39 39 09 40 90 26 95 bf
       -1.0554434 -1.5223081 2.1441176 -1.1652393
000220 e2 71 94 be 28 fe 0a c0 d4 04 f9 be 1b cd 27 3f
       -0.28993136 -2.1717625 -0.48636496 0.6554734
000230 01 25 02 40 64 a9 e3 be 10 2d 56 3f 0a d5 93 bf
       2.0335085 -0.44465172 0.8366251 -1.1549389
000240 4e c6 0f 40 33 14 3d bf b4 04 aa bf b0 c2 05 40
       2.2464786 -0.73858947 -1.3282685 2.0900078
000250 6f 4d c6 be 7a c5 d9 3f 6a e4 b2 3f 4b ae 03 bd
       -0.38730952 1.701339 1.3975956 -0.03214864
000260 b1 94 e7 3e 44 a6 b2 be 43 21 68 3b 83 6f 72 be
       0.4523063 -0.34892476 0.0035420216 -0.23675351
000270 c0 d3 a0 3f db de 41 3f cc 8f c1 be 86 f0 8c bf
       1.2564621 0.75730675 -0.3780502 -1.1010902
000280 bc 18 31 3d e0 ef 4f be 7c dd 00 bf d7 97 4d bd
       0.04323648 -0.20306349 -0.5033796 -0.050193634
000290 7b 06 05 bf 48 71 83 3e 04 23 1b bf 0b d8 7d 3f
       -0.51963013 0.25672364 -0.60600305 0.9915778
0002a0 29 d8 3a bf fb b5 d7 3e fd 2a 47 bf 80 84 9e be
       -0.72986084 0.42131028 -0.7779997 -0.30960464
0002b0 0a f5 f4 be 29 c1 5f bf 7e d1 eb bc 59 a2 e2 3d
       -0.478432 -0.87404114 -0.028786417 0.110661216
0002c0 e4 d1 95 3e ed c7 ee be b3 a0 ca bd ea 5e a3 be
       0.29261696 -0.46636906 -0.09893932 -0.3190835
0002d0 15 77 19 bf 67 42 42 bf 8e 71 60 bf 87 ea 09 bc
       -0.5994733 -0.7588257 -0.8767327 -0.008417732
0002e0 76 fb 0b 3d 4e b2 37 3e af 85 08 3e 9d 84 17 be
       0.03417536 0.17939112 0.13332246 -0.14796682
0002f0 59 b0 88 3e f9 11 88 bf 70 b4 df be c1 47 c3 be
       0.26697043 -1.0630485 -0.4369235 -0.3814068
000300 6c b4 a5 be 36 6f 5d 3e 55 c8 03 3e d9 ac 96 3d
       -0.32364213 0.21624455 0.1286939 0.07357187
000310 c7 ca e9 be 1a 2e 8a be fd 38 92 3f 3a 04 13 3f
       -0.4566252 -0.26988298 1.1423641 0.57428324
000320 74 49 ca 3e 11 7b d6 bc ef 02 79 be 9c 17 57 3d
       0.39509165 -0.02618173 -0.24317525 0.05251275
000330 48 99 02 be a5 bb 1a bd 76 a0 c9 bd b5 f3 4c be
       -0.12753785 -0.037776608 -0.098450586 -0.20014842
000340 2c 56 ff bd 49 41 34 be 89 f6 0e 3e 42 11 9d be
       -0.12467608 -0.1760303 0.13961233 -0.3067723
000350 4a 6f 83 be 71 ed 86 be 71 c7 3d 3e c5 b5 dd 3c
       -0.25670844 -0.26353028 0.18533112 0.027064214
000360 b7 ad 2b 3d a5 30 06 be f8 37 a3 bd 28 70 93 3e
       0.041913714 -0.13104494 -0.079696596 0.28796506
000370 2d 64 d4 3e d3 85 36 be 36 63 22 3e 0c b4 bc 3f
       0.41482678 -0.17824487 0.15858158 1.4742446
000380 1a ee 18 3e c9 0e 2e 3e c4 ea 9f 3e 03 aa 00 bf
       0.14934579 0.16997828 0.312338 -0.5025942
000390 1c b2 af 3e 03 94 b9 3d f2 c5 c5 be 7e 29 2b be
       0.34315574 0.09061434 -0.38627583 -0.16715047
0003a0 07 21 8c bc fd bb 95 3c 1c f7 85 3e 1f 80 f6 be
       -0.017105592 0.018278116 0.26165092 -0.48144624
0003b0 9b 62 4c 3d 58 c4 cf 3d 4b be f0 3e b5 78 7e 3d
       0.049898725 0.101448715 0.47020182 0.062126834

onnx::MatMul_207 f4 [40, 1]
000000 20 1b 73 bf d3 52 b3 3f 2c d6 3c 3f 1d aa 4b bf
       -0.94963264 1.4009651 0.737643 -0.7955645
000010 e7 9b 19 bf bb f1 ac bf 96 9d a5 3f 3e 8c 53 bf
       -0.60003513 -1.351127 1.2938716 -0.8263587
000020 eb 58 da be 81 36 31 bf 6b c2 15 3d 78 6d 9e be
       -0.42645964 -0.6922379 0.036562365 -0.30942893
000030 a9 43 dc 3f 6e 55 f0 3d 43 76 07 3f f4 bc a6 c0
       1.7208148 0.117350444 0.5291483 -5.2105656
000040 11 6c f2 be 6c a8 ef 3c 35 49 b6 bf ff 82 8c bf
       -0.47348073 0.029255114 -1.4241091 -1.0977477
000050 8e d3 52 3e 22 9a 0a 40 37 a7 f8 be 4e f1 8a bf
       0.20588514 2.1656575 -0.48565075 -1.085489
000060 d5 e8 44 3e 2d be 79 3f d2 61 3c 3f 22 99 61 40
       0.19229443 0.9755581 0.7358676 3.5249715
000070 51 1d a0 bc d4 53 b3 3f 1e 1c 79 bf f8 34 b2 3c
       -0.01954523 1.4009957 -0.9730853 0.021753773
000080 81 af 43 3f 53 7e 76 bf c1 ac 3a 3f aa 4d 98 3c
       0.7643967 -0.96286505 0.7291985 0.01859172
000090 7d 83 76 3f 50 ab b0 3f 28 94 67 c0 e5 37 be c0
       0.96294385 1.380228 -3.6184177 -5.944323
